trained_mel.pt (torch, 724702 bytes, 15 tensors)

emb_l.0.weight f4 [84, 775]
0	0x3ddee293	0.10883059
1	0x3d915554	0.07096353
2	0x3ddabc30	0.10680425
3	0x3d3b081c	0.04566203
4	0xbbd4162f	-0.006472371
5	0x3c2fae13	0.010722655
6	0xbdbaa458	-0.09113377
7	0x3d1cde02	0.03829766
8	0x3be4a41f	0.0069775726
9	0x3d143478	0.03618285
10	0xbd055c1d	-0.03255855
11	0xbd86d10b	-0.065828405
12	0x3d56623b	0.052339774
13	0x3d258bce	0.04041653
14	0xbdb799cd	-0.08964882
15	0xbd9d7021	-0.076874025
16	0xbdbe87a6	-0.09303217
17	0xbd62a2df	-0.055331107
18	0xbd77734a	-0.060412683
19	0xbdc503f4	-0.096198946
20	0x3dc11e7f	0.09429645
21	0xbdb9bd9a	-0.09069367
22	0xbbaf91f1	-0.0053579737
23	0x3dd0cb3c	0.10195014
24	0x3d9dd436	0.07706492
25	0xbdb7b580	-0.08970165
26	0x3d2b87b4	0.041877463
27	0x3d9bfbea	0.07616408
28	0xbd526d6e	-0.05137389
29	0xbd9b1074	-0.075714976
30	0x3cc7ae4b	0.024375102
31	0x3d4897af	0.04897278
32	0x3dd98dc1	0.106227405
33	0xbca961ea	-0.020676572
34	0x3da3f4ac	0.08005652
35	0xbd8149e8	-0.063129246
36	0xbd11e352	-0.03561718
37	0x3dbd538b	0.0924445
38	0xbcba1af0	-0.022717923
39	0xbd94cc0b	-0.072654806
40	0x3c4ef1f7	0.012630931
41	0x3d8400fc	0.064455
42	0x3db7c7a6	0.08973627
43	0x3ddf4cfe	0.10903357
44	0xbd645c3c	-0.055752024
45	0x3d95f758	0.07322568
46	0xbdc763e5	-0.0973585
47	0xbdc89141	-0.0979333
48	0x3d27ba63	0.040949237
49	0xbd2f4763	-0.04279269
50	0x3d00677c	0.03134869
51	0xbd4ad631	-0.049520675
52	0xbd78a6c6	-0.060705923
53	0x3d79defc	0.06100367
54	0xbd8696a7	-0.065717034
55	0xbd897ecc	-0.06713638
56	0xbd22e565	-0.03976955
57	0xbdd2a01f	-0.10284447
58	0xbd94a13f	-0.07257318
59	0x3dd80664	0.10548094
60	0xbd7ba36c	-0.061435148
61	0x3d3e59c2	0.04647232
62	0x3d2032d5	0.039110977
63	0xbc9deebc	-0.019278876
64	0x3bdae517	0.0066801417
65	0xbc2a6d6a	-0.010402063
66	0x3d584c96	0.052807413
67	0x3dc29406	0.095008895
68	0xbdbcf22a	-0.09225877
69	0xbcc3d070	-0.023903102
70	0xbd5260e5	-0.051361937
71	0xbd98835c	-0.0744693
72	0xbda74b04	-0.08168605
73	0xbcbb7bd9	-0.022886204
74	0x3cbdc32a	0.02316435
75	0xbda2b693	-0.079449795
76	0x3d0d9ada	0.034571506
77	0xbc5b1dd6	-0.013373813
78	0x3d632c53	0.055462193
79	0x3da4f160	0.08053851
80	0x3dd3aad7	0.103353195
81	0xbd7324e8	-0.05936137
82	0xbd4c1f75	-0.049834687
83	0x3d97de83	0.074154876
84	0x3dd19881	0.10234166
85	0x3db71d22	0.089411035
86	0x3d8e6bd8	0.06954163
87	0x3c2213c7	0.009892411
88	0xbdb6f596	-0.089335606
89	0xbd55a9de	-0.05216395
90	0xbdb48220	-0.08813882
91	0x3dd1f1c6	0.10251193
92	0xbd60e1be	-0.054902785
93	0xbc879a8f	-0.016553191
94	0x3cd10d37	0.025518997
95	0xbdd2e7cb	-0.10298117
96	0x3d755d87	0.059903648
97	0x3ce49890	0.027904779
98	0xbdd8d431	-0.10587347
99	0xbbdff2d7	-0.0068343687
100	0xbd6861e6	-0.05673399
101	0x3996d829	0.0002877128
102	0x3c34851f	0.011018067
103	0x3d05bb0e	0.032649092
104	0xbd100a1b	-0.035165887
105	0x3dc803be	0.09766339
106	0x3db2bd49	0.087275095
107	0x3c971250	0.01844135
108	0xbdbd9fd5	-0.09259001
109	0xbd7ea94e	-0.06217318
110	0x3c428d58	0.011874519
111	0x3c137634	0.00900035
112	0x3db911b8	0.09036583
113	0x3da123a7	0.07868128
114	0x3c5bda7e	0.013418792
115	0xbdc96a6c	-0.098347515
116	0xbdbe9615	-0.093059696
117	0xbd2f3382	-0.04277373
118	0xbbe71c64	-0.007052945
119	0xbd91f93c	-0.07127616
120	0x3d9c3df9	0.07629008
121	0x3dc73fed	0.0972899
122	0x3dbe6122	0.0929587
123	0xbd639980	-0.05556631
124	0x3c367f11	0.011138693
125	0x3d092b2c	0.033488438
126	0x3cb7b1b9	0.022423612
127	0x3c2947dd	0.010332075
128	0xbbf43237	-0.007452275
129	0xbd552717	-0.052039232
130	0x3d84fea6	0.06493883
131	0x3a8d72c7	0.0010791653
132	0xbdcee5fc	-0.1010246
133	0xbcba9309	-0.02277519
134	0x3db0d323	0.08634021
135	0x3db23ed0	0.08703387
136	0xbd6d7bde	-0.057979457
137	0x3d86a7d7	0.06574982
138	0xbdc5ee4c	-0.09664592
139	0x3c9db79c	0.01925259
140	0x3cd4ab5d	0.025960619
141	0x3d95e224	0.073185235
142	0x3dcfad56	0.10140483
143	0xbd8156e8	-0.06315404
144	0xbcff6845	-0.03117765
145	0xbddab80f	-0.10679638
146	0xbda2ddc6	-0.07952456
147	0xbdb10f2f	-0.08645474
148	0x3c01dc68	0.007926084
149	0x3d5e616e	0.054292135
150	0xbd7056bb	-0.058676463
151	0xbbb7868f	-0.0056007574
152	0xbc944f10	-0.018104106
153	0xbdd3c6f0	-0.10340679
154	0x3d24cfbd	0.040237177
155	0x3d4eba83	0.05047084
156	0xbdbddfbe	-0.09271191
157	0xbd9f12e1	-0.07767273
158	0x3db5b2e7	0.088720135
159	0x3cfb2ead	0.030661905
160	0xbdcfd0f5	-0.10147277
161	0xbce24dd0	-0.027624995
162	0xbdd14b77	-0.10219472
163	0xbd16c773	-0.036811303
164	0xbc8fdfb4	-0.017562725
165	0x3d946389	0.07245547
166	0xbcf26547	-0.029589308
167	0x3d25f8d8	0.04052052
168	0x3ce0d9fb	0.027447691
169	0x3dc59b63	0.09648778
170	0xbdb303ef	-0.08740985
171	0xbd3021f6	-0.043001138
172	0x3d67b593	0.056569647
173	0x3d7d3266	0.06181564
174	0x3dddd010	0.108307004
175	0x3d6e3fd1	0.05816633
176	0xbd177d07	-0.03698447
177	0x3d0b8cd8	0.034069866
178	0xbd06eb78	-0.032939404
179	0xbd2f1bde	-0.042751186
180	0x3dcda625	0.10041455
181	0x3d29ef15	0.041487772
182	0x3cf3b25d	0.029748136
183	0xbcf51e00	-0.029921532
184	0x3cb072a4	0.02153904
185	0xbcf24dcf	-0.029578118
186	0xbdb551db	-0.08853503
187	0xbcd99912	-0.026562247
188	0xbd32db51	-0.043666188
189	0x3dccd111	0.10000814
190	0x3d8d5f11	0.06902898
191	0x3ca11912	0.019665275
192	0x3d105ea3	0.035246503
193	0x39832143	0.0002501105
194	0x3c041188	0.00806082
195	0xbda095ee	-0.07841097
196	0xbda3a58c	-0.0799056
197	0xbd71f771	-0.05907387
198	0x3db3b6e3	0.08775117
199	0xbdbd2ca8	-0.09237033
200	0xbd379be0	-0.04482639
201	0xbd22795d	-0.039666522
202	0xbcc2cd34	-0.02377949
203	0x3d9c9540	0.07645655
204	0x3d0f949f	0.035053845
205	0x3dc02da0	0.09383702
206	0x3dcd7fd9	0.10034151
207	0xbd99a487	-0.07502084
208	0x3dd99a08	0.10625082
209	0x3d49e879	0.04929397
210	0xbdd5754f	-0.104227655
211	0xbdd02dcd	-0.10164986
212	0xbbf90dd4	-0.0076005254
213	0x3da647be	0.081191525
214	0x3c12e471	0.0089655975
215	0x3cb8f2b0	0.02257666
216	0x3ddd2478	0.107979715
217	0x3dd2a829	0.1028598
218	0x3c869180	0.016426802
219	0xbc3b1578	-0.011418693
220	0xbda49cad	-0.08037696
221	0x3d8ebc73	0.069695376
222	0x3dbe17ef	0.09281909
223	0x3bff92ff	0.0077995057
224	0xbc263442	-0.010144295
225	0xbdc9b1b7	-0.098483495
226	0xbaad4ddc	-0.0013222056
227	0x3dc3be2c	0.09557757
228	0x3ddef338	0.10886234
229	0x3dc47f65	0.09594611
230	0x3d8d8a1c	0.06911108
231	0xbbbf20d3	-0.0058327704
232	0xbb02487f	-0.0019879637
233	0xbd973395	-0.07382885
234	0xbd814258	-0.06311482
235	0xbdb31b7e	-0.08745478
236	0xbdc58361	-0.09644199
237	0x3daa9167	0.083285145
238	0x3d085540	0.033284426
239	0x3dc9b2b0	0.09848535
240	0xbd98ef03	-0.07467463
241	0xbdb831ec	-0.08993897
242	0x3d99c09a	0.07507439
243	0xbdbc363b	-0.09190031
244	0xbbf24cc5	-0.0073944055
245	0xbca9793d	-0.020687694
246	0xbda04cef	-0.07827174
247	0x3d3381de	0.043825023
248	0x3dac4147	0.08410888
249	0xbdcdf988	-0.1005736
250	0xbd93aff0	-0.07211292
251	0x3daf4ace	0.0855919
252	0xbda6927f	-0.08133411
253	0xbc89d25f	-0.016823946
254	0x3dc296bb	0.09501406
255	0xbd92441d	-0.07141898

emb_l.1.weight f4 [3, 775]
0	0xbec3b581	-0.38224414
1	0xbecd2fef	-0.40075633
2	0x3f133fb1	0.5751906
3	0x3e52d250	0.2058804
4	0xbe8451f7	-0.25843784
5	0xbf0d0f38	-0.55101347
6	0xbea2831f	-0.31740662
7	0x3e90e5f8	0.28300452
8	0x3d939ed1	0.07208026
9	0xbc69921c	-0.014256027
10	0x3effd6c8	0.49968553
11	0x3e97b227	0.29628107
12	0xbdede2f4	-0.116155535
13	0xbe90c46d	-0.2827486
14	0xbe3978e7	-0.18112527
15	0xbebaec02	-0.36508185
16	0x3e98e099	0.29858854
17	0x3f04157d	0.5159529
18	0x3edaaca6	0.42709845
19	0xbe8e13f4	-0.27749598
20	0x3e33dc50	0.17564511
21	0x3ec487d9	0.38384894
22	0x3e9acd10	0.30234575
23	0x3e8f92ad	0.28041592
24	0xbe03fd62	-0.12889627
25	0xbe311a56	-0.17295203
26	0xbc9fc6b1	-0.019503923
27	0x3f127cad	0.5722149
28	0xbe57d47c	-0.2107715
29	0xbec0d472	-0.37662083
30	0xbead04d1	-0.33792737
31	0xbe87da8b	-0.26533923
32	0x3e295679	0.16536893
33	0xbd292cef	-0.041302618
34	0xbe13cb99	-0.14433135
35	0xbed948c5	-0.4243833
36	0xbec6366b	-0.38713393
37	0x3deadfbf	0.114684574
38	0x3e11cc6f	0.14238141
39	0xbcf29e70	-0.029616565
40	0xbdf6494a	-0.120256975
41	0xbed7709e	-0.42078108
42	0xbee4d690	-0.44694948
43	0x3cae293f	0.021259902
44	0xbe9fe41b	-0.31228718
45	0x3ec20164	0.37891686
46	0xbeba3e72	-0.36375767
47	0xbd56f4cb	-0.052479547
48	0xbf11e2e0	-0.5698681
49	0xbcf2d60d	-0.029643083
50	0xbe9fc848	-0.3120749
51	0x3d625643	0.055258047
52	0xbd076078	-0.033050984
53	0x3f060c1d	0.52362233
54	0xbf046e31	-0.5173064
55	0xbe144018	-0.14477575
56	0xbeeb3922	-0.45942026
57	0xbee99366	-0.4562027
58	0xbe57474b	-0.2102329
59	0x3dcbf8be	0.09959553
60	0xbf0f02de	-0.5586375
61	0x3d8b388d	0.067978956
62	0x3ed6decb	0.41966853
63	0xbe253ff0	-0.16137671
64	0x3ec47444	0.38369954
65	0xbeccd746	-0.4000799
66	0x3e9350b0	0.28772497
67	0xbdb8165f	-0.08988642
68	0x3f010560	0.50398827
69	0x3d6f07a5	0.0583569
70	0xbe2d8e93	-0.16948919
71	0xbea95b4f	-0.33077475
72	0x3db02559	0.086008735
73	0x3ead94e3	0.33902654
74	0xbe3d7f7b	-0.18505661
75	0x3ef0457b	0.4692801
76	0x3e6b8cc3	0.23002915
77	0x3e59aa00	0.21256256
78	0xbeadfbcc	-0.33981168
79	0xbf075d77	-0.5287699
80	0xbec1c33c	-0.37844265
81	0x3f0cb6a2	0.54966176
82	0x3e2dfa22	0.1698995
83	0xbe8213b3	-0.25405654
84	0xbea39970	-0.31953
85	0xbdf4e39c	-0.119574755
86	0xbebb3375	-0.36562696
87	0x3f122205	0.5708316
88	0xbe9ca35d	-0.30593386
89	0x3ecef164	0.4041854
90	0xbe1f70a8	-0.15570319
91	0x3cc25fa6	0.02372725
92	0xbd6e4ea3	-0.058180463
93	0x3e29b845	0.165742
94	0xbe9b8b15	-0.3037955
95	0xbf0bcf18	-0.54612875
96	0xbe813ff2	-0.252441
97	0xbedd747c	-0.43252933
98	0xbeaafb7c	-0.33394992
99	0x3ca26541	0.019823672
100	0xbdfc208d	-0.12310896
101	0x3eee2cf0	0.4651866
102	0xbeb39330	-0.35073233
103	0xbe28ac7a	-0.16472045
104	0xbe0460c4	-0.12927538
105	0xbe2d9870	-0.16952682
106	0xbe878306	-0.2646715
107	0x3e2afb65	0.16697462
108	0xbcb5f05a	-0.022209335
109	0x3ccaeb5f	0.024770437
110	0xbe0443f5	-0.12916549
111	0xbc99a571	-0.018755646
112	0xbe6938ce	-0.22775576
113	0xbe161b45	-0.1465884
114	0x3cbcf4b6	0.023065906
115	0xbec13234	-0.37733614
116	0x3eee5484	0.46548855
117	0xbec8784f	-0.39154288
118	0xbc1ab3d0	-0.009442285
119	0xbe9bcd39	-0.3043001
120	0xbdbb6182	-0.091494575
121	0x3ee28f2e	0.44249862
122	0x3e68c68e	0.22731993
123	0x3e503f61	0.20336677
124	0x3d965e4e	0.07342206
125	0xbc73da76	-0.014883628
126	0x3e8c5613	0.2740942
127	0x3ea1e954	0.31623328
128	0x3f01d03e	0.5070838
129	0xbf0a6f57	-0.5407614
130	0xbe117afe	-0.14207074
131	0x3e435506	0.19075403
132	0xbe45d157	-0.19318138
133	0x3e923469	0.2855561
134	0xbeb62748	-0.35576844
135	0xbd2b1ea5	-0.04177727
136	0x3e5f92c8	0.21833336
137	0xbed58633	-0.41703948
138	0x3f00956e	0.5022801
139	0x3f08ea14	0.53482175
140	0x3ee34fd5	0.44396845
141	0xbc55db48	-0.013052769
142	0x3d58c74f	0.05292445
143	0x3da862c1	0.08221961
144	0x3e56edd8	0.20989168
145	0x3e70a90d	0.23501988
146	0x3e196a6a	0.14982
147	0xbe6649b2	-0.2248905
148	0xbf12fe08	-0.5741887
149	0x3e8e3f21	0.2778254
150	0xbe9b55fe	-0.30339044
151	0xbdfe21e8	-0.12408811
152	0xbee4f3d7	-0.44717285
153	0x3f0619be	0.5238303
154	0xbf0fb487	-0.5613484
155	0x3e60da4f	0.21958278
156	0x3e226c07	0.15861522
157	0xbd986586	-0.07441239
158	0x3ef72e2d	0.48277417
159	0x3efac5b7	0.4897897
160	0x3e4163bb	0.188857
161	0x3df80aa5	0.12111405
162	0xbd977eb8	-0.073972166
163	0xbef0da3a	-0.47041494
164	0x3d860228	0.0654338
165	0x3e31839b	0.1733536
166	0xbeb63bdd	-0.35592547
167	0x3eb74616	0.3579566
168	0xbeb7f914	-0.3593222
169	0xbeeff46a	-0.4686616
170	0xbe553f69	-0.2082497
171	0x3eba35d6	0.363692
172	0x3dbbf93e	0.091783985
173	0xbe2e9583	-0.17049222
174	0xbe8c0c64	-0.27353203
175	0xbdf6987e	-0.12040804
176	0xbf0ee38e	-0.5581597
177	0x3eeebb45	0.4662725
178	0xbeaeb46b	-0.34122023
179	0x3e402a7e	0.1876621
180	0x3d6fcfce	0.058547787
181	0xbf0b4e15	-0.5441602
182	0x3ef21be0	0.47286892
183	0xbe4fe0f0	-0.2030065
184	0x3e8740c9	0.26416615
185	0xbee62b75	-0.4495503
186	0xbd4d336d	-0.05009787
187	0x3e9f3582	0.3109551
188	0xbeaaf83b	-0.3339251
189	0x3e570953	0.2099965
190	0x3d95aa7e	0.073079094
191	0x3e89ef61	0.26940444
192	0xbce096f5	-0.027415732
193	0x3e53a5d1	0.20668723
194	0xbe80285c	-0.25030792
195	0xbeff9b1c	-0.49923027
196	0x3f0be77c	0.5465009
197	0xbe38297d	-0.17984577
198	0x3eced446	0.40396327
199	0xbe41685a	-0.18887463
200	0xbedf3874	-0.43597758
201	0xbeb312e1	-0.3497534
202	0x3f069b36	0.52580583
203	0xbd5f1992	-0.054467745
204	0xbe976d0e	-0.2957539
205	0x3e29282a	0.16519228
206	0xbe640b62	-0.22269967
207	0xbe9ad6fa	-0.3024214
208	0x3ec7c06c	0.39013994
209	0xbee7d9d4	-0.45283377
210	0x3dae2eaa	0.08504994
211	0x3ec885e4	0.3916465
212	0x3d0fefd3	0.035140824
213	0x3eb60d2e	0.3555693
214	0xbd362916	-0.044472776
215	0xbbd836c7	-0.006598327
216	0x3e8d7385	0.27627197
217	0xbe2eac62	-0.17057946
218	0xbdfa5dee	-0.12224947
219	0x3eb0810e	0.3447346
220	0xbecea829	-0.4036267
221	0xbc366ca0	-0.011134297
222	0xbf12d6a0	-0.5735874
223	0xbe47f796	-0.1952804
224	0x3e587f42	0.21142295
225	0x3eb77649	0.35832432
226	0x3f0a85a7	0.5411019
227	0x3f0d2c15	0.5514539
228	0xbe0db04b	-0.13836782
229	0xbed92912	-0.42414147
230	0xbe789688	-0.24276173
231	0xbe67c48f	-0.22633575
232	0x3e1e9bd8	0.15489137
233	0x3e9e6318	0.30934978
234	0xbf03f72d	-0.51549035
235	0x3e138966	0.14407882
236	0x3e337fca	0.17529216
237	0x3e69c37f	0.22828482
238	0x3d3082d7	0.04309353
239	0xbd89cfcf	-0.067290895
240	0xbc8e38df	-0.017361103
241	0x3ecbf0fb	0.3983229
242	0x3ee9fde3	0.45701513
243	0xbec56449	-0.38553074
244	0xbea8cb2d	-0.3296751
245	0xbe868514	-0.26273406
246	0x3f018baf	0.50603765
247	0x3ed3c8c0	0.41364098
248	0x3eda3c7b	0.42624268
249	0x3ce7ece7	0.028311206
250	0xbe7878a4	-0.24264771
251	0xbe74b4d7	-0.2389711
252	0x3e30f69b	0.17281573
253	0xbe72edd1	-0.23723532
254	0x3f127b21	0.5721913
255	0xbd4fedd2	-0.050763912

emb_l.2.weight f4 [5, 775]
0	0xbc9371ea	-0.017998654
1	0xbec1347b	-0.37735352
2	0xbd81c207	-0.06335836
3	0xbe8c75ff	-0.27433774
4	0x3ebe4c3f	0.37167546
5	0xbe9cffbd	-0.30663863
6	0xbdd67c17	-0.10472887
7	0xbc8a3b42	-0.01687396
8	0x3eceb737	0.40374157
9	0x3eb9c54f	0.36283347
10	0x3ebcdf63	0.3688918
11	0x3d035739	0.032065604
12	0x3e8adf98	0.27123713
13	0xbecb66ed	-0.39726964
14	0xbdaa812a	-0.08325417
15	0xbea56117	-0.32300636
16	0x3b1f0222	0.0024262746
17	0xbcacf51e	-0.021112975
18	0x3d2fbb56	0.042903267
19	0x3ec7c5fa	0.39018232
20	0x3ecc2328	0.39870572
21	0x3eba1ec7	0.36351606
22	0xbebbb6c6	-0.36662883
23	0xbea76218	-0.32692027
24	0x3e263783	0.16232114
25	0xbe28c32d	-0.16480704
26	0xbed0cc20	-0.40780735
27	0x3e38d334	0.18049318
28	0x3e41aff2	0.18914774
29	0xbedefa21	-0.43550208
30	0x3ed77f16	0.42089146
31	0x3dcb6bf3	0.09932699
32	0x3c8fd0e9	0.01755567
33	0x3e67ad24	0.22624642
34	0xbdedd3d8	-0.116126716
35	0xbdfce7a4	-0.123488694
36	0xbea3b165	-0.3197128
37	0xbea90227	-0.33009455
38	0x3e80dbb2	0.25167614
39	0xbeb3ab5b	-0.3509167
40	0x3e8a34e0	0.26993465
41	0x3cf644da	0.030062128
42	0x3d82c773	0.06385698
43	0x3e8e0141	0.27735332
44	0x3c7367a6	0.014856255
45	0xbd2bd221	-0.04194844
46	0x3e54c11d	0.20776792
47	0x3e6f746c	0.23384255
48	0xbd8d0a6e	-0.06886755
49	0x3e4d97ae	0.20077392
50	0xbea8e80d	-0.3298954
51	0xbe6df987	-0.23239718
52	0xbec9b80b	-0.39398226
53	0xbe9d6d79	-0.30747584
54	0x3eb41ae1	0.35176757
55	0x3eb3190a	0.3498004
56	0xbe539018	-0.20660436
57	0xbed9336a	-0.42422038
58	0xbdc77b6b	-0.09740337
59	0x3e6a3fc2	0.22875884
60	0xbe6ff813	-0.23434477
61	0xbed78db2	-0.42100292
62	0x3e612051	0.21984984
63	0x3ebbdd91	0.3669248
64	0x3e8c5001	0.27404788
65	0xbe0fa641	-0.14028265
66	0x3d941be6	0.07231884
67	0xbe8bcfec	-0.2730707
68	0x3e4eeb58	0.20206964
69	0x3e2149eb	0.15750854
70	0xbe6d2867	-0.23159944
71	0x3e297175	0.16547187
72	0xbe840c90	-0.25790834
73	0xbd631698	-0.05544147
74	0x3edd0ddd	0.4317464
75	0xbea13c1f	-0.3149118
76	0x3ebd17ee	0.3693232
77	0x3ed316cd	0.41228333
78	0x3d2c8a61	0.042124156
79	0xbc870628	-0.016482428
80	0x3e84977c	0.25896823
81	0xbebb7b13	-0.36617336
82	0x3e32ecc6	0.17473134
83	0x3ebde8e4	0.37091744
84	0xbe9c7f8a	-0.30566055
85	0x3eca50b8	0.3951471
86	0x3c220688	0.0098892525
87	0xbeb7de04	-0.35911572
88	0x3eb98a77	0.36238453
89	0x3e317b5d	0.17332216
90	0xbecd4aff	-0.4009628
91	0x3e462988	0.1935178
92	0x3e14ad31	0.14519192
93	0x3e20fcb2	0.15721396
94	0x3e88681b	0.26641926
95	0xbe03479f	-0.1282029
96	0xbe749f5c	-0.23888916
97	0xbeac9460	-0.3370695
98	0x3de7adbe	0.113124356
99	0x3e5e8b52	0.21732834
100	0xbe507065	-0.20355375
101	0x3e183709	0.14864744
102	0x3e0c8cdb	0.13725607
103	0xbe857b8b	-0.26070818
104	0xbe601dc8	-0.2188636
105	0xbeae0b5f	-0.3399305
106	0xbc9fef58	-0.019523308
107	0x3d5eaef1	0.054366056
108	0x3ea4bedd	0.32176867
109	0xbec6422c	-0.3872236
110	0xbe2d38f9	-0.16916265
111	0x3ea1c7fe	0.31597894
112	0x3e08a080	0.13342476
113	0xbb662234	-0.0035115601
114	0x3ebcd60c	0.36882055
115	0xbdb561fd	-0.088565804
116	0x39e6b9c7	0.00044007433
117	0x3e12b2cc	0.14326018
118	0x3e9d61a0	0.30738544
119	0xbeae309c	-0.3402146
120	0x3e68eda8	0.22746909
121	0x3eda7012	0.42663628
122	0xbec3ed4e	-0.38266987
123	0xbe2c5492	-0.16829136
124	0xbee0dd94	-0.4391905
125	0xbe57e9db	-0.21085303
126	0x3e9eb9aa	0.31001025
127	0xbee14fd7	-0.44006225
128	0xbd9aa5d4	-0.075511605
129	0x3eab3087	0.3343546
130	0x3e5be216	0.21472964
131	0x3e487c06	0.19578561
132	0x3e54cb5e	0.20780703
133	0xbed8f7da	-0.42376596
134	0xbda9034a	-0.082525805
135	0x3cfd8c5f	0.030950723
136	0xbebe7bef	-0.3720393
137	0x3e7b4fef	0.24542211
138	0xbeaa131c	-0.33217704
139	0x3dfc6695	0.123242535
140	0x3eb3d410	0.35122728
141	0xbe2de8f9	-0.16983403
142	0x3dbcd115	0.09219567
143	0xbe438c13	-0.19096403
144	0x3e7cb265	0.24677427
145	0xbea4402a	-0.32080203
146	0xbea04e9e	-0.3130998
147	0xbebec0d8	-0.37256503
148	0xbcaec813	-0.021335637
149	0x3e390e1c	0.18071789
150	0x3e8fbfa7	0.28075907
151	0xbedc2183	-0.42994317
152	0xbd58c349	-0.052920613
153	0xbe8795b5	-0.26481405
154	0x3ca10755	0.019656816
155	0xbdc6dc8f	-0.09710037
156	0x3e9a5580	0.30143356
157	0x3e26ce4f	0.16289638
158	0x3ec1d6fa	0.37859327
159	0xbe8e8f37	-0.2784364
160	0xbedcdf4d	-0.43139115
161	0x3e29dd50	0.1658833
162	0x3e2b52ab	0.16730754
163	0xbe7fb2ff	-0.24970625
164	0x3e96e99d	0.29475108
165	0x3e405487	0.18782245
166	0xbeb83a84	-0.35982144
167	0x3e42e7b0	0.19033694
168	0xbedf0d5e	-0.43564886
169	0xbdb85531	-0.09000624
170	0xbe256dd3	-0.16155176
171	0xbdb49673	-0.088177584
172	0xbaded5d9	-0.0017000987
173	0x3edba465	0.4289886
174	0xbe9b3af9	-0.3031843
175	0x3e4e94d5	0.20173962
176	0xbe9e22d9	-0.30885962
177	0xbebae363	-0.36501607
178	0x3c41faf8	0.011839621
179	0x3e1517ac	0.14559811
180	0x3c7a438d	0.015274894
181	0xbeba498a	-0.3638423
182	0x3e587955	0.21140034
183	0xbecefe47	-0.40428373
184	0x3eb77bc7	0.35836622
185	0x3e7e1dd0	0.2481606
186	0x3ea923ad	0.3303503
187	0xbe812c22	-0.25228983
188	0x3bc708ff	0.0060740705
189	0x3ec23f8e	0.37939113
190	0x3e222609	0.15834822
191	0xbeaa9f63	-0.33324727
192	0x3da42f25	0.080168046
193	0xbe1717eb	-0.14755218
194	0x3e492a22	0.19644979
195	0x3a480d8e	0.00076314143
196	0x3cd530f7	0.026024325
197	0x3c514606	0.012773043
198	0xbed0000c	-0.40625036
199	0xbe49262a	-0.19643465
200	0xbedb9d65	-0.4289352
201	0x3ee1d15c	0.4410504
202	0xbe2bb304	-0.16767508
203	0x3ca226be	0.019793864
204	0xbe6d1894	-0.23153907
205	0xbde52725	-0.11189107
206	0x3aeb6c1b	0.0017961295
207	0xbe952601	-0.29130557
208	0xbe93260f	-0.28739974
209	0xbd070708	-0.03296569
210	0x3e0fcffd	0.14044185
211	0x3e05f143	0.13080315
212	0xbed8c4f1	-0.42337754
213	0xbed0b3d3	-0.40762195
214	0xbedf80a9	-0.43652847
215	0xbe36de6c	-0.17858285
216	0x3ed70f02	0.42003638
217	0x3e4a5e9e	0.19762656
218	0xbed109c0	-0.4082775
219	0xbd2187e3	-0.039436232
220	0xbeabd126	-0.33558005
221	0x3ea9361d	0.33049098
222	0x3e1c002b	0.15234439
223	0x3ee1034e	0.43947834
224	0xba436475	-0.0007453629
225	0x3da1b338	0.078955114
226	0x3dc51afd	0.09624288
227	0xbda987d2	-0.08277859
228	0xbeb3a41a	-0.35086137
229	0x3cb65cc7	0.022261037
230	0x3e0d3914	0.13791305
231	0xbe455811	-0.19271876
232	0x3d9647fb	0.07337948
233	0x3db507b1	0.08839358
234	0xbd453e6e	-0.04815524
235	0x3ebbe152	0.36695343
236	0x3d669a45	0.056299467
237	0xbe0f87cf	-0.1401665
238	0xbeb02a49	-0.3440726
239	0x3e28eea2	0.16497281
240	0xbe2c09dd	-0.16800638
241	0x3e7c0695	0.24611886
242	0x3e5353b1	0.20637394
243	0x3e83beb1	0.25731423
244	0xbed05c30	-0.40695333
245	0x3dd5d33c	0.104406804
246	0xbeb17933	-0.3466278
247	0x3dd1a762	0.10237004
248	0xbe030a94	-0.12797004
249	0x3ee19c26	0.44064444
250	0x3ea100d2	0.31445938
251	0xbe8fd4dd	-0.2809209
252	0x3e9e6cd6	0.3094241
253	0xbdc4e251	-0.09613479
254	0x3e120b93	0.14262228
255	0xbdf72850	-0.12068236

emb_l.3.weight f4 [4, 775]
0	0x3e7a9f65	0.24474867
1	0x3edb6f7b	0.4285849
2	0x3e9e6ec1	0.30943874
3	0xbe24ec99	-0.1610588
4	0xbe13f14d	-0.14447518
5	0xbe02a46e	-0.12758037
6	0xbe269d4d	-0.16270943
7	0x3e2b0141	0.16699697
8	0x3ef805b2	0.48441845
9	0x3e571783	0.21005063
10	0xbe7ed4ec	-0.24885911
11	0x3e7cf07b	0.24701111
12	0x3ef63d9d	0.48093882
13	0x3eaeeefd	0.3416671
14	0xbe35a4d0	-0.17738652
15	0x3edc6c2e	0.43051285
16	0xbd66b556	-0.05632528
17	0x3d56a5bf	0.05240416
18	0xbeb454bd	-0.352209
19	0xbe8c4035	-0.27392736
20	0x3ea9e015	0.33178774
21	0xbececad0	-0.4038911
22	0xbee5e5ef	-0.44901988
23	0x3edd81c5	0.4326307
24	0xbec0f600	-0.37687683
25	0x3e8f9e67	0.2805054
26	0x3ef17af3	0.47164115
27	0x3e0fa4d4	0.1402772
28	0xbe0bd762	-0.13656381
29	0xbe83b352	-0.25722748
30	0xbe91cf58	-0.28478503
31	0x3ea8a0bf	0.3293514
32	0xbd99f694	-0.07517734
33	0xbe154132	-0.14575651
34	0xbd050601	-0.03247643
35	0xbe4225ee	-0.18959782
36	0x3eaa66d9	0.33281592
37	0x3e94bf22	0.29052073
38	0xbd3cc7d9	-0.046089027
39	0xbe8427b9	-0.25811556
40	0x3e5075f2	0.20357493
41	0x3e9c4335	0.30520025
42	0xbed89dad	-0.42307797
43	0x3d1943a4	0.037418023
44	0xbef6d979	-0.48212793
45	0x3de0455e	0.10950731
46	0xbd03e861	-0.032204036
47	0x3e10187a	0.14071837
48	0xbc79b986	-0.015241986
49	0x3e9f7de2	0.31150728
50	0x3d39b3af	0.045337375
51	0xbd738983	-0.059457313
52	0x3d8ffb92	0.07030405
53	0x3e44d625	0.19222315
54	0x3ec8aa9a	0.3919266
55	0xbe902f32	-0.28161007
56	0x3e8f6116	0.28003758
57	0xbe80d67b	-0.25163636
58	0x3e43eb34	0.19132692
59	0xbc51734b	-0.012783836
60	0xbe867094	-0.26257765
61	0xbe277ba0	-0.16355753
62	0x3eff0d71	0.49814942
63	0xbe45b45b	-0.19307081
64	0x3ed8eedf	0.42369744
65	0xbe137114	-0.14398605
66	0x3e6de088	0.23230183
67	0xbef3e2d3	-0.4763399
68	0x3db8be03	0.09020617
69	0x3ec48356	0.3838145
70	0x3efee3b4	0.497831
71	0xbe0422f1	-0.12903954
72	0xbef7d2f8	-0.48403144
73	0xbd066448	-0.03281048
74	0x3ec3a9e7	0.38215563
75	0xbe3629e3	-0.17789416
76	0xbeede890	-0.46466494
77	0x3e978041	0.29590037
78	0x3df5f72e	0.120100364
79	0x3e17cebf	0.14824961
80	0x3e68a836	0.22720417
81	0xbe27b50e	-0.1637766
82	0x3d1007ee	0.035163812
83	0xbe96d801	-0.29461673
84	0xbc858907	-0.016300691
85	0x3ea520f7	0.32251713
86	0xbe92d404	-0.2867738
87	0x3e6a1e07	0.22863017
88	0xbef01d76	-0.46897477
89	0x3e1a092b	0.1504256
90	0xbe839cb2	-0.25705487
91	0x3ebdf089	0.37097576
92	0x3e4af5cb	0.19820325
93	0xbedc9b7c	-0.43087375
94	0x3ed4128d	0.41420403
95	0x3ccc90ed	0.02497145
96	0xbcac67b1	-0.021045538
97	0xbec5e054	-0.3864771
98	0x3d944845	0.07240347
99	0xbe7a37e4	-0.24435383
100	0x3ed491ee	0.41517586
101	0x3d55d7b8	0.05220768
102	0x3e63b00e	0.22235128
103	0x3eedbb59	0.46431997
104	0xbefb78b0	-0.49115515
105	0xbddee3ea	-0.10883315
106	0xbe76d9ff	-0.24106596
107	0x3e05f0cd	0.1308014
108	0x3e203396	0.15644678
109	0x3c5d5855	0.0135098295
110	0x3db4219a	0.087954715
111	0xbe078358	-0.13233697
112	0xbeebb979	-0.46039942
113	0x3e904168	0.281749
114	0x3ede6c9f	0.43442246
115	0x3e1566ea	0.1459004
116	0xbe900cf6	-0.28134888
117	0xbee33930	-0.44379568
118	0x3e115657	0.14193092
119	0xbe5a0f7a	-0.21294966
120	0xbdf45b8c	-0.11931524
121	0xbd6c8d6d	-0.05775206
122	0x3ebd4050	0.3696313
123	0xbd028c83	-0.031872284
124	0x3c51c7d1	0.012803988
125	0xbec49edb	-0.38402447
126	0xbe4eaf8e	-0.20184156
127	0xbdd18fb3	-0.102324866
128	0x3c265e71	0.0101543525
129	0x3edbf42c	0.42959726
130	0x3d3f8bdd	0.046764243
131	0x3ee111c5	0.4395887
132	0xbe9d656d	-0.30741444
133	0x3de29072	0.11062707
134	0x3ddc6ff1	0.10763539
135	0xbeb8f246	-0.3612234
136	0xbec59792	-0.385922
137	0x3d6d0f51	0.057875935
138	0xbc9445fc	-0.018099777
139	0x3e7d0271	0.24707963
140	0x3eb2b9d0	0.3490739
141	0xbea49a30	-0.32148886
142	0x3e2f69f8	0.17130268
143	0x3eecc1f4	0.46241724
144	0x3eb79647	0.3585684
145	0x3e265bbc	0.16245931
146	0xbeec933f	-0.4620609
147	0xbeded641	-0.43522838
148	0xbedcc0cb	-0.4311584
149	0x3b762113	0.0037556335
150	0x3e4b6a42	0.19864753
151	0x3db2eacd	0.08736191
152	0xbe716e3c	-0.23577207
153	0xbe3e76fd	-0.18600078
154	0xbdc35f6e	-0.09539686
155	0x3ea8d8e1	0.32977965
156	0xbdc3aa58	-0.09553975
157	0xbe03e09e	-0.12878653
158	0xbe04df8b	-0.129759
159	0xbecac648	-0.39604402
160	0xbe48697f	-0.19571494
161	0x3ecae173	0.3962513
162	0x3e2f8cfc	0.17143625
163	0x3e6aed2f	0.22942041
164	0x3eec8eb3	0.4620262
165	0x3ea6cf9c	0.32580268
166	0xbef57deb	-0.4794763
167	0xbefa1ed2	-0.4885164
168	0xbe8a5507	-0.27017996
169	0x3e9f5602	0.31120306
170	0xbeeeaf2e	-0.46618026
171	0x3e739641	0.23787786
172	0x3d2ebe4d	0.042661954
173	0x3e262218	0.16223943
174	0x3ee2cba2	0.44295985
175	0xbe6ea4e0	-0.23305082
176	0x3ed85c46	0.422579
177	0x3ea732d6	0.32655972
178	0x3ef205fb	0.47270188
179	0xbe95d7a3	-0.2926608
180	0x3ed81965	0.42206874
181	0x3e400833	0.18753128
182	0x3e83f39f	0.25771806
183	0xbeca3150	-0.39490747
184	0xbeb5932c	-0.35463846
185	0x3e20f956	0.15720114
186	0x3eb2e4f4	0.34940302
187	0x3d9fbf30	0.07800138
188	0x3d416991	0.047219817
189	0xbe3534d5	-0.17695935
190	0x3ed3e344	0.41384327
191	0x3d730ff5	0.05934139
192	0xbddbb49c	-0.10727808
193	0xbdcf7d64	-0.10131338
194	0x3e918767	0.28423616
195	0xbd54f3a3	-0.051990163
196	0xbede4107	-0.43408987
197	0xbefa1911	-0.4884725
198	0x3ea8ce9a	0.32970124
199	0xbe3276f1	-0.17428185
200	0x3ec7bf9b	0.3901337
201	0x3e9dd65e	0.30827612
202	0xbec3af6b	-0.3821977
203	0x3e2e85e9	0.1704327
204	0x3db68700	0.08912468
205	0x3efc00d3	0.4921938
206	0x3ee45d91	0.44602636
207	0x3e7fe0a0	0.24988031
208	0xbec6868b	-0.38774523
209	0xbeafd50b	-0.34342226
210	0x3ea8fd5b	0.33005795
211	0x3e45a3d3	0.19300775
212	0xbe990cc4	-0.29892552
213	0x3ed5bac5	0.41744056
214	0xbeec1257	-0.46107742
215	0xbea21658	-0.31657672
216	0x3db64189	0.088992186
217	0xbef8281f	-0.4846811
218	0x3efe7b39	0.49703386
219	0xbd379719	-0.044821832
220	0x3c0a4a84	0.0084406175
221	0xbe95566d	-0.291675
222	0xbef635a6	-0.48087806
223	0x3ec49d1d	0.38401118
224	0xbcdea493	-0.027178084
225	0x3ea52362	0.32253557
226	0x3ea28ef1	0.3174968
227	0x3e871de8	0.26390004
228	0xbdc390fd	-0.09549139
229	0xbef669b4	-0.4812752
230	0xbe211286	-0.15729722
231	0xbecc58fa	-0.39911634
232	0xbee82159	-0.45337942
233	0x3e4274e2	0.189899
234	0x3e3ec3e7	0.18629418
235	0x3e662eb7	0.22478758
236	0xbd8527f9	-0.06501765
237	0x3e804073	0.2504917
238	0xbe830667	-0.25590822
239	0xbe9acd0d	-0.30234566
240	0xbe5ef3aa	-0.21772638
241	0x3e2d0076	0.16894707
242	0xbea6e10d	-0.32593575
243	0x3c9e0f73	0.019294476
244	0xbcab93f9	-0.020944582
245	0x3d24c21e	0.040224187
246	0xbee03217	-0.43788216
247	0xbe4fe031	-0.20300366
248	0x3ef118c8	0.4708922
249	0xbe886133	-0.26636657
250	0xbd95f1d3	-0.07321515
251	0x3c032888	0.008005269
252	0x3eec8ff2	0.46203572
253	0xbeb5a1e5	-0.35475078
254	0x3da0795b	0.07835647
255	0xbda18f5a	-0.0788867

emb_l.4.weight f4 [6, 775]
0	0x3b678bd2	0.0035331142
1	0xbe9c74b4	-0.30557787
2	0xbd053cae	-0.03252857
3	0x3e314448	0.17311203
4	0xbeca828b	-0.3955272
5	0x3dc2350e	0.09482776
6	0xbed00b38	-0.4063356
7	0x3e96f649	0.29484776
8	0x3c03d825	0.008047138
9	0xbea2cde9	-0.31797722
10	0xbe479882	-0.19491771
11	0x3e145386	0.14484987
12	0x3eb3e61f	0.35136506
13	0x3e7b5645	0.24544628
14	0xbde04989	-0.10951526
15	0xbeb36e87	-0.35045263
16	0x3ea2f8d6	0.31830472
17	0xbea6af5d	-0.32555667
18	0x3ebc8be5	0.3682548
19	0x3ca1a8f1	0.019733878
20	0x3dc7a038	0.09747356
21	0x3e944208	0.28956628
22	0xbd0191b4	-0.031633094
23	0xbe834d7b	-0.2564505
24	0x3e9319b5	0.2873055
25	0x3e95f967	0.2929184
26	0xbdcae3d8	-0.09906739
27	0x3ea35ae2	0.31905276
28	0x3eb75c86	0.35812777
29	0x3eb04c0a	0.34433013
30	0x3e7cfb21	0.24705173
31	0xbe994998	-0.2993896
32	0xbe09abec	-0.13444489
33	0x3eb7b233	0.35878143
34	0x3cb26dc0	0.021780849
35	0xbe97d7f3	-0.29656944
36	0xbea2c3ec	-0.31790102
37	0x3ec8d300	0.3922348
38	0xbe8127af	-0.2522559
39	0x3e6e8ea2	0.23296598
40	0xbec19faf	-0.3781714
41	0xbe31a924	-0.17349678
42	0x3ec58b20	0.38582706
43	0xbeba161d	-0.36344996
44	0xbe8805a2	-0.26566797
45	0xbbd64e11	-0.006540068
46	0xbe19023a	-0.14942256
47	0x3eabfa84	0.33589566
48	0x3eb87b81	0.36031726
49	0x3e640727	0.22268353
50	0x3eced3a8	0.40395856
51	0xbeca762b	-0.3954328
52	0x3e8d0bac	0.27547967
53	0xbdff2b2c	-0.12459406
54	0x3ea2add3	0.31773242
55	0x3e04965a	0.1294798
56	0x3e4fc8e7	0.20291482
57	0xbe8f0edf	-0.27941033
58	0x3ecba404	0.39773571
59	0x3e3de6b4	0.18545038
60	0x3db8832a	0.090093926
61	0x3e088e31	0.13335492
62	0xbe0982fe	-0.13428876
63	0xbebfe601	-0.37480167
64	0x3e0fe149	0.14050783
65	0x3e1fac3e	0.15593049
66	0xbc8a6026	-0.01689155
67	0xbe7f5718	-0.24935567
68	0xbd03ff09	-0.032225642
69	0x3e3377be	0.17526147
70	0x3d403b07	0.046931293
71	0x3e8e9943	0.27851304
72	0xbdd360e4	-0.10321215
73	0xbe8b374d	-0.2719063
74	0x3e1d6b77	0.15373026
75	0x3e88e222	0.26735026
76	0x3e00c9d0	0.12576985
77	0x3e39492b	0.18094318
78	0x3ddeaf48	0.10873276
79	0xbec7e633	-0.39042816
80	0xbe2a33de	-0.16621348
81	0x3eae4e28	0.34044003
82	0x3e8e5e2a	0.27806216
83	0xbd12d35b	-0.035846096
84	0xbd8490f8	-0.06472963
85	0xbc290231	-0.010315464
86	0xbdbb29ec	-0.09138855
87	0xbecf7b58	-0.4052379
88	0xbeba7fa9	-0.36425522
89	0xbe408fba	-0.18804827
90	0x3e62d268	0.22150576
91	0x3ec11f2d	0.37719098
92	0xbe8c62ef	-0.2741923
93	0xbe2ad06f	-0.16681074
94	0x3e8a60a7	0.27026865
95	0x3e96a1a7	0.29420206
96	0xbe8d8336	-0.27639169
97	0x3eb92df4	0.36167872
98	0x3e6372a6	0.22211704
99	0x3dfd5afe	0.12370871
100	0xbeb62d53	-0.35581455
101	0xbd1458e6	-0.036217593
102	0x3e8f7a80	0.28023148
103	0xbd663571	-0.05620331
104	0x3eacc25f	0.33742043
105	0x3eb273d7	0.34854004
106	0x3e19f820	0.15036058
107	0x3ca6b8d9	0.020351814
108	0xbe954b9f	-0.29159257
109	0x3e69c7b8	0.22830093
110	0x3d95c9b9	0.07313866
111	0xbeb5c887	-0.35504553
112	0xbece10c8	-0.40247178
113	0x3e9e97b4	0.30975115
114	0xbe2df59a	-0.16988221
115	0xbd12d4e7	-0.03584757
116	0x3eb562a8	0.3542683
117	0xbd7401e7	-0.059572127
118	0xbec026f2	-0.37529713
119	0x3eb8782c	0.36029184
120	0x3e81e9eb	0.25373778
121	0xbe097c1a	-0.13426247
122	0xbe198781	-0.14993097
123	0xbeb79bbb	-0.35861
124	0xbe0710a8	-0.13189948
125	0xbdf394f1	-0.11893643
126	0x3e6e8319	0.23292197
127	0x3e1220cb	0.14270322
128	0x3e727069	0.23675694
129	0xbdba6a37	-0.0910229
130	0xbc6fa25e	-0.014626114
131	0xbd171881	-0.036888603
132	0xbe66c1bb	-0.2253484
133	0xbed064e0	-0.40701962
134	0xbd15c533	-0.036565017
135	0xbe71ec56	-0.23625311
136	0x3e429c15	0.19004853
137	0x3e0955df	0.13411663
138	0x3e332ed2	0.1749833
139	0xbe8e4164	-0.27784264
140	0x3d412e63	0.04716338
141	0x3e3ed6db	0.18636648
142	0x3e21bdad	0.15795012
143	0x3e19de1e	0.15026137
144	0xbe2bdf07	-0.16784297
145	0xbe0765cf	-0.1322243
146	0xbe8949d9	-0.26814154
147	0xbe308445	-0.17237957
148	0xbe0b6a71	-0.13614823
149	0x3ed03ccd	0.40671387
150	0xbe34cb7d	-0.1765575
151	0xbeb2b878	-0.34906363
152	0xbeb30ae7	-0.34969255
153	0x3ebeb804	0.37249768
154	0x3e506b44	0.20353419
155	0x3db5799b	0.08861085
156	0xbe0e5fbd	-0.13903709
157	0xbd7dccf7	-0.061963048
158	0xbe9a1054	-0.30090582
159	0x3e7ed233	0.24884872
160	0xbe616054	-0.22009403
161	0x3e8fefa7	0.28112528
162	0x3e0aba1c	0.13547558
163	0xbdb13508	-0.08652693
164	0xbe9ebe0a	-0.31004363
165	0xbed0b1ad	-0.40760556
166	0x3ebcb116	0.36853856
167	0xbeaf9587	-0.34293768
168	0x3e156903	0.1459084
169	0xbd3c070d	-0.04590516
170	0x3eb435fc	0.35197437
171	0x3de685e9	0.1125601
172	0x3ebef2dd	0.37294665
173	0xbeb3f8d6	-0.35150784
174	0x3e917890	0.28412294
175	0x3eb9b49b	0.36270604
176	0xbe2093e1	-0.15681411
177	0x3e7ffe6f	0.24999402
178	0xbe18882c	-0.14895695
179	0xbe3cf963	-0.18454508
180	0x3da3902f	0.07986485
181	0x3e8f16d7	0.27947113
182	0xbe3b3e47	-0.18285476
183	0xbe5cf99b	-0.21579592
184	0xbec5944e	-0.3858971
185	0x3d81d240	0.0633893
186	0x3dcb7164	0.09933737
187	0x3e409942	0.18808463
188	0x3e4545c2	0.19264892
189	0xbdc353e4	-0.09537485
190	0x3ea372c6	0.31923503
191	0xbe856454	-0.26053107
192	0xbe4d1db7	-0.20030867
193	0x3cc30a1e	0.023808535
194	0x3ea14089	0.3149455
195	0xbdc1a2c5	-0.09454874
196	0x3e6a0223	0.22852378
197	0x3e603c1d	0.21897931
198	0x3eb13dac	0.34617364
199	0x3eceb74a	0.40374213
200	0x3e34f358	0.17670953
201	0x3e71929b	0.23591082
202	0x3e8fc929	0.2808316
203	0xbe535413	-0.2063754
204	0x3e4c3f96	0.19946131
205	0xbe7d3be9	-0.24729885
206	0x3de3a797	0.111159496
207	0x3ea6b4c0	0.32559776
208	0xbe70e90f	-0.23526405
209	0xbd74e055	-0.059784252
210	0x3e21d4b5	0.15803798
211	0xbec019e6	-0.3751976
212	0x3cf01453	0.029306566
213	0x3d9c2f41	0.076262005
214	0xbea9178e	-0.33025783
215	0x3e25ebc8	0.16203225
216	0x3ea9706d	0.33093587
217	0x3e99f857	0.3007228
218	0xbe8cf3b2	-0.27529675
219	0x3eaed681	0.34148028
220	0x3dea16ef	0.114301555
221	0xbdcada18	-0.09904879
222	0x3b976b2d	0.0046209306
223	0xbe97bb6c	-0.2963518
224	0x3ec493df	0.38394067
225	0x3e9eac5a	0.3099087
226	0xbe95014d	-0.29102555
227	0x3eb1fe2b	0.34764227
228	0xbe4114ad	-0.18855543
229	0x3e056537	0.13026892
230	0x3d93edd4	0.072230965
231	0x3dbbbfb6	0.09167425
232	0x3e4db6c7	0.20089255
233	0x3e82dc21	0.2555857
234	0x3ec60832	0.38678128
235	0xbe96418c	-0.29346883
236	0x3e276259	0.1634611
237	0xbd7ab35f	-0.061206218
238	0xbe08655e	-0.13319919
239	0x3e9f8092	0.3115278
240	0x3d89309d	0.066987254
241	0xbdf26041	-0.11834765
242	0x3dce8889	0.10084636
243	0xbe18c426	-0.14918575
244	0xbec76667	-0.38945314
245	0xbe08dc87	-0.13365375
246	0x3ea68b45	0.3252813
247	0xbec05797	-0.37566826
248	0xbeb4edf8	-0.35337806
249	0xbeb04f7c	-0.34435642
250	0x3e0d0473	0.13771228
251	0x3e13dad9	0.14438953
252	0xbd87918d	-0.066195585
253	0x3e4304ae	0.19044754
254	0xbe2bf670	-0.16793227
255	0x3e2998e6	0.16562232

emb_l.5.weight f4 [84, 775]
0	0x3dd7a78a	0.105300024
1	0xbd969a6a	-0.07353671
2	0xbd8bb669	-0.06821901
3	0xbd108ff8	-0.03529355
4	0xbbbfa63a	-0.005848673
5	0xbc6a1852	-0.014288025
6	0xbd98bf30	-0.07458341
7	0x3da41452	0.08011688
8	0x3c2e85e2	0.010652037
9	0x3db59913	0.08867087
10	0xbcd662fd	-0.026170248
11	0xbdba3f71	-0.09094132
12	0xbd5a3eab	-0.05328242
13	0xbb9a7a86	-0.004714313
14	0x3cb59457	0.02216546
15	0x3cd5eb07	0.026113046
16	0x3d89c82d	0.067276336
17	0x3cd605fe	0.026125904
18	0xbdb5f407	-0.08884435
19	0xbc3b1ddc	-0.011420693
20	0x3dc3e445	0.09565023
21	0xbdd41fb6	-0.10357611
22	0xbdb0afb2	-0.08627261
23	0xbd854f8f	-0.06509315
24	0x3bf8d15c	0.007593317
25	0x3d23268d	0.039831687
26	0x3d15668b	0.036474746
27	0xbdb91063	-0.09036329
28	0xbdca4677	-0.09876721
29	0x3d312aee	0.04325383
30	0xbd31f8ff	-0.04345035
31	0xbdb615c8	-0.08890873
32	0x3c93ff32	0.018066023
33	0xbd2c8c7f	-0.042126175
34	0x3d70cad0	0.058787167
35	0xbcd1bbce	-0.025602248
36	0xbca6617b	-0.020310154
37	0x38a58d9a	7.8941885e-05
38	0x3db1e622	0.086864725
39	0xbdae1e17	-0.08501833
40	0x3d74f3a2	0.05980266
41	0xbdc94021	-0.09826685
42	0xbd189585	-0.037251968
43	0xbd759e49	-0.059965406
44	0xbdaaf7b9	-0.083480306
45	0x3c4c0956	0.012453398
46	0xbdb6016c	-0.0888699
47	0x3dd737ab	0.10508665
48	0xbb7d005f	-0.0038604958
49	0xbd19ed60	-0.037579894
50	0x3dad240b	0.0845414
51	0xbd9fc085	-0.07800392
52	0xbca1304e	-0.019676354
53	0xbd994093	-0.0748302
54	0xbd696379	-0.05697963
55	0x3dd175b3	0.102275275
56	0x3d95bf12	0.073118344
57	0xbdcf601a	-0.10125752
58	0xbda7a265	-0.08185271
59	0x3d556ac0	0.052103758
60	0xbcc27f57	-0.023742361
61	0xbdb8219a	-0.08990784
62	0x3d8c6875	0.06855861
63	0xbdd088a8	-0.10182315
64	0x3d7ee51f	0.062230226
65	0x3d81742f	0.063209884
66	0xbdc32690	-0.095288396
67	0xbd2d04e3	-0.04224099
68	0xbda7c690	-0.0819217
69	0x3db28b1f	0.087179415
70	0xbd12cffb	-0.035842877
71	0xbda96968	-0.08272058
72	0x3d127a8c	0.0357614
73	0xbd677a2f	-0.056513008
74	0xbc31a87e	-0.010843394
75	0xbd90c2c5	-0.07068399
76	0xbd26391c	-0.040581807
77	0xbc90206f	-0.01759359
78	0x3c82c3b2	0.015962455
79	0x3d14b033	0.03630085
80	0xbd5e76a1	-0.054312352
81	0x3bbaf5e9	0.0057055843
82	0xbd77d767	-0.060508158
83	0x3dabb6a6	0.08384447
84	0x3d174c23	0.036937844
85	0x3d172980	0.03690481
86	0xbdc3f453	-0.095680855
87	0xbac30fa2	-0.0014881978
88	0x3b11c13e	0.0022240425
89	0xbdc533d6	-0.096290275
90	0xbd2ddb2e	-0.042445354
91	0x3c71692d	0.0147345485
92	0xbd805299	-0.06265754
93	0x3d916b6a	0.07100566
94	0xbd3fe760	-0.046851516
95	0xbd2b9162	-0.041886695
96	0x3dc9a83f	0.098465435
97	0xbd880f87	-0.066435866
98	0xbd5b2043	-0.053497564
99	0xbdae7ce9	-0.085199185
100	0xbd765457	-0.060139026
101	0x3d86b31b	0.065771304
102	0x3cfcd7a8	0.030864552
103	0x3c026a80	0.007959962
104	0x3d5db7d6	0.054130398
105	0xbd8160a2	-0.06317259
106	0x3d0c2c9b	0.034222227
107	0xbc6c85f4	-0.014436234
108	0x3c002b97	0.007822893
109	0xbcf7e28e	-0.030259397
110	0x3d09a198	0.033601373
111	0x3d8ac40f	0.067756765
112	0x3d3596e6	0.04433336
113	0xbccdf411	-0.025140794
114	0xbd0ba711	-0.034094874
115	0xbd9754a2	-0.07389189
116	0xbdb07b98	-0.08617324
117	0xbd9c2a09	-0.07625205
118	0xbd9bf92c	-0.07615885
119	0x3ca09225	0.019600937
120	0x3d0df2aa	0.03465525
121	0x3d60e414	0.054905012
122	0xbd497477	-0.049183335
123	0x3bf5bcbe	0.0074993065
124	0xbbcc37fe	-0.0062322607
125	0x3d3f0ca7	0.046642926
126	0xbc79823b	-0.015228803
127	0x3d54682b	0.051857155
128	0x3c2f0c59	0.010684096
129	0x3dc28ac9	0.094991274
130	0xbdc0cb0d	-0.09413729
131	0xbdb448ca	-0.08802946
132	0xbda59b3a	-0.08086248
133	0xbdac08f7	-0.084001474
134	0x3dbf4a1e	0.093403086
135	0xbdcb3098	-0.09921378
136	0x3d78e704	0.06076719
137	0x3d7ddc50	0.061977684
138	0xbd8d36a2	-0.06895186
139	0x3dc1f42d	0.09470401
140	0x3da14ab0	0.07875574
141	0x3a97951a	0.0011564821
142	0xbc3c72df	-0.011501997
143	0x3d9d8388	0.07691103
144	0xbd560a3e	-0.05225586
145	0xbdcbb9df	-0.099475615
146	0xbb5251ce	-0.0032092216
147	0xbd0afec1	-0.03393436
148	0x3d94bdba	0.0726275
149	0xbcc5c8d1	-0.024143608
150	0x3d428365	0.04748859
151	0xbceb5941	-0.028729083
152	0xbd619861	-0.05507696
153	0xbda1343a	-0.078712896
154	0xbdbdb1c6	-0.09262423
155	0x3d02f83b	0.031975012
156	0x3c883e27	0.016631199
157	0xbdcf841f	-0.10132622
158	0xbcec9f99	-0.028884696
159	0x3cb5a1e1	0.022171916
160	0x3d661536	0.056172572
161	0xbd4ef63f	-0.050527807
162	0xbcfb1d5d	-0.03065365
163	0x3d023e77	0.031797852
164	0x3d826d1e	0.06368469
165	0xbdb55e61	-0.08855892
166	0x3d86e002	0.06585695
167	0xbd84e373	-0.06488695
168	0xbd7adb61	-0.061244372
169	0x3dd8d233	0.10586967
170	0x3dcab8c8	0.098985255
171	0xbd6458e5	-0.05574884
172	0xbcc768fc	-0.024342053
173	0xbd3e18f0	-0.0464105
174	0x3c5c56e4	0.013448451
175	0xbca8b3f3	-0.020593619
176	0x3d96b293	0.07358279
177	0x3da4b17e	0.080416664
178	0xbd9da28a	-0.076970175
179	0x3dd4763f	0.10374116
180	0xbdab99a1	-0.08378912
181	0xbbaa4451	-0.005196132
182	0xbd02d1a7	-0.03193822
183	0xbc8fdb8d	-0.017560745
184	0xbd651473	-0.055927705
185	0xbb48f7b1	-0.0030665214
186	0x3d9f3049	0.077728815
187	0x3dd635cd	0.104594804
188	0xbda84c8c	-0.08217725
189	0xbd8d9304	-0.06912807
190	0xbdcc5dd0	-0.09978831
191	0xbd14d935	-0.036339957
192	0xbdb5263b	-0.088451825
193	0xbd865963	-0.06560018
194	0x3d53cdec	0.051710054
195	0xbc392031	-0.011299179
196	0xbd61a6b5	-0.055090625
197	0x3dbcb8d0	0.09214938
198	0xbdc7f507	-0.09763532
199	0xbdb47839	-0.08811993
200	0x3d6f1b46	0.05837562
201	0x3cdc3580	0.02688098
202	0xbd3f44db	-0.046696525
203	0x3dab4293	0.083623074
204	0x3dd185f1	0.102306254
205	0xbddb8ba1	-0.107199915
206	0xbd38e493	-0.04513986
207	0xbd9da4eb	-0.07697471
208	0xbc832b55	-0.016011873
209	0x3db66296	0.089055225
210	0x3d99b7b8	0.07505745
211	0xbcc083e8	-0.023500398
212	0x3d30629d	0.043062795
213	0x3c4e5799	0.012594127
214	0xbcf38b77	-0.029729588
215	0xbd9c123f	-0.07620668
216	0xbcd81400	-0.026376724
217	0x3d06cd11	0.03291041
218	0x3cae03f3	0.021242118
219	0xbd92636c	-0.071478695
220	0xbd12c2d8	-0.03583035
221	0xbd024059	-0.031799648
222	0xbd9cf493	-0.07663836
223	0x3c42c2bc	0.011887249
224	0x3d3d8fb3	0.04627962
225	0xbd8e5c20	-0.06951165
226	0xb901afa2	-0.00012367827
227	0x3c0ca033	0.008583116
228	0xbce74ef7	-0.028235896
229	0xbd83876b	-0.06422313
230	0xbd9a6049	-0.07537896
231	0xbc9d1b2c	-0.019177996
232	0xbd31e50d	-0.04343133
233	0xbd8784e8	-0.06617147
234	0xbd4bdaa1	-0.049769048
235	0x3d7db5dc	0.061941013
236	0xbd88ac66	-0.066735074
237	0x3d9a8d91	0.07546533
238	0x3b559e89	0.0032595715
239	0x3caf4d8c	0.021399282
240	0xbd6e75ee	-0.058217935
241	0x3dbdd3c0	0.09268904
242	0xbc83206d	-0.016006673
243	0x3da2eca2	0.079552904
244	0xbd3effed	-0.04663079
245	0xbd0e2307	-0.034701373
246	0x3d52241d	0.05130397
247	0x3ca9f605	0.020747194
248	0x3d463abe	0.048395865
249	0x3cfcfabd	0.03088128
250	0x3dc90ea7	0.09817248
251	0xbd1c0fcc	-0.038101003
252	0xbd26a0a8	-0.040680557
253	0xbd8dd29b	-0.069249354
254	0xbd715c03	-0.05892564
255	0x3dad2251	0.08453811

emb_l.6.weight f4 [6, 775]
0	0x3dff01c5	0.124515094
1	0x3e219c7d	0.15782352
2	0x3eb00007	0.3437502
3	0xbe0cf243	-0.1376429
4	0x3e01d9a1	0.12680675
5	0x3ebb4cd2	0.36582047
6	0xbea86216	-0.32887334
7	0x3e3bd423	0.18342642
8	0x3e2a935e	0.16657779
9	0x3e4c0899	0.19925155
10	0xbe4d6ec2	-0.20061782
11	0x3dd6c07f	0.104859345
12	0x3bb8bf6b	0.005638053
13	0x3eaea639	0.34111193
14	0xbdbca6c9	-0.09211499
15	0xbe1fb783	-0.15597348
16	0x3ecadd73	0.39622077
17	0xbebe023e	-0.37111086
18	0x3e90bab4	0.28267443
19	0xbec3bc74	-0.38229716
20	0xbe143108	-0.14471829
21	0x3e863f73	0.26220283
22	0x3e4e7e31	0.20165326
23	0xbea35cd4	-0.3190676
24	0xbeb9de55	-0.36302438
25	0x3e98b90f	0.29828689
26	0x3db2f056	0.08737247
27	0x3db25e3b	0.08709379
28	0x3dae0154	0.08496347
29	0x3d80001a	0.06250019
30	0xbe51f9b0	-0.20505404
31	0x3ce00b9a	0.027349282
32	0xbd08ece0	-0.033429027
33	0x3e1a332d	0.15058585
34	0x3d69f827	0.057121422
35	0xbece7f2e	-0.40331405
36	0xbdd5a903	-0.10432627
37	0xbe70aa23	-0.23502402
38	0x3e3986c3	0.18117814
39	0x3ed0014f	0.40625998
40	0xbe54c145	-0.20776851
41	0x3d6a75d4	0.057241276
42	0xbcfab5ff	-0.03060436
43	0xbecfabf3	-0.40560874
44	0x3c917733	0.017757034
45	0x3e1027f4	0.14077741
46	0xbd2b6894	-0.04184778
47	0xbeae2550	-0.34012842
48	0x3e876036	0.2644059
49	0x3e74787c	0.23874086
50	0xbe8df7c1	-0.27728084
51	0x3e91a70c	0.2844776
52	0xbe6bb800	-0.23019409
53	0xbddb7654	-0.10715929
54	0x3eb47ba1	0.3525057
55	0xbe8f9903	-0.28046426
56	0x3ea98f8a	0.33117324
57	0x3ebd61b7	0.36988613
58	0xbe868349	-0.26272038
59	0x3ec0019d	0.3750123
60	0xbe934e90	-0.28770876
61	0xbe920c89	-0.2852519
62	0xbe5c4c4a	-0.21513477
63	0x3d3e31f0	0.046434343
64	0xbda144b7	-0.078744344
65	0x3d72a765	0.05924167
66	0x3e9edf6c	0.31029832
67	0xbe9bb314	-0.30410063
68	0xbe6fbfe7	-0.23413049
69	0xbd17b30d	-0.03703599
70	0xbd01e2fd	-0.031710614
71	0x3b913813	0.0044317334
72	0x3e786666	0.24257812
73	0x3ec28335	0.37990728
74	0x3d32d877	0.04366347
75	0xbc61e4fd	-0.013787505
76	0x3e81ce22	0.2535258
77	0x3e8096fb	0.2511519
78	0xbe69e4ee	-0.22841236
79	0x3e15ef2a	0.14642015
80	0xbe638f4e	-0.22222635
81	0x3ecb8e9e	0.39757246
82	0xbeb2522a	-0.3482831
83	0xbdba5d3f	-0.090998165
84	0x3e36a650	0.1783688
85	0xbdf873b6	-0.12131445
86	0xbe8311c6	-0.25599498
87	0x3e968f5f	0.29406258
88	0x3e839fdc	0.257079
89	0x3df4ddbe	0.119563565
90	0xbeb65e7f	-0.3561897
91	0xbe102659	-0.14077128
92	0xbe94b57c	-0.29044712
93	0x3dbf86c2	0.09351875
94	0xbe39ffad	-0.18163939
95	0x3ea0e487	0.31424353
96	0xbe08d64c	-0.13362998
97	0xbe9e47d8	-0.30914187
98	0xbdf61b4e	-0.12016927
99	0xbbf313a7	-0.007418114
100	0x3e289a8d	0.16465206
101	0xbe0554c8	-0.13020623
102	0x3eb0a31f	0.34499452
103	0xbc8a36f5	-0.016871909
104	0xbea6723c	-0.3250903
105	0x3dcf69e2	0.101276174
106	0xbc2834b1	-0.010266469
107	0xbe5c3808	-0.21505749
108	0x3d9a96f6	0.07548325
109	0x3d9f8060	0.077881575
110	0x3ebbfaa7	0.3671467
111	0x3e77136c	0.24128503
112	0x3e307c30	0.17234874
113	0xbeb7d334	-0.35903323
114	0xbe27d6f8	-0.16390598
115	0xbd9f328f	-0.07773315
116	0x3c3b69a8	0.011438765
117	0xbeba7978	-0.36420798
118	0x3d5a5864	0.053306952
119	0xbdfa1edd	-0.12212918
120	0xbe70b7d5	-0.23507626
121	0xbd644f60	-0.05573976
122	0x3e2f5ffe	0.17126462
123	0x3ebde9d8	0.3709247
124	0xbea31db1	-0.3185859
125	0xbd78d26a	-0.06074754
126	0x3e7ff359	0.24995174
127	0xbd6c28d0	-0.05765611
128	0x3b9e2d2c	0.0048271623
129	0x3e8bd1c1	0.27308467
130	0x3ea1d025	0.31604114
131	0xbdc07801	-0.09397889
132	0x3ec07042	0.37585646
133	0xbe3aa3a7	-0.18226491
134	0xbe21ff8f	-0.15820144
135	0x3d6d7055	0.057968456
136	0x3dcca146	0.09991698
137	0x3daebaf0	0.08531749
138	0x3da19156	0.07889049
139	0x3e920253	0.28517398
140	0xbec2052a	-0.37894565
141	0xbe54a5b5	-0.20766337
142	0x3ebc8420	0.36819553
143	0x3de41330	0.11136472
144	0xbed0f67b	-0.4081305
145	0x3e326c8e	0.17424223
146	0xbebb275d	-0.3655347
147	0x3c7c71c3	0.015407982
148	0xbe14e715	-0.14541276
149	0x3df0e744	0.117628604
150	0xbe35592b	-0.17709796
151	0xbeb4c758	-0.35308337
152	0xbe87b383	-0.26504144
153	0x3e47f278	0.19526088
154	0x3dff8809	0.124771185
155	0xbd92cfe2	-0.07168557
156	0x3e095d17	0.13414417
157	0x3ca9e55b	0.020739248
158	0xbe8a516d	-0.27015248
159	0x3e8771d8	0.26454043
160	0xbe6438c3	-0.22287278
161	0x3e7e249b	0.24818651
162	0x3e1f3be3	0.15550189
163	0x3dbe76d1	0.09300006
164	0x3d9a9463	0.07547834
165	0x3e7931e9	0.24335445
166	0xbec672a4	-0.3875934
167	0x3e5e371d	0.21700712
168	0xbea9ebea	-0.331878
169	0xbd8d643d	-0.069038846
170	0xbdcff743	-0.10154583
171	0xbe9f4518	-0.31107402
172	0xbeaf1478	-0.34195304
173	0xbbf1b1f2	-0.007375949
174	0xbcbe08fd	-0.023197645
175	0x3ea08d4f	0.3135781
176	0xbeb4b466	-0.35293883
177	0x3b17ef9d	0.0023183592
178	0x3bb57c7d	0.005538522
179	0xbdad96bb	-0.08476015
180	0x3eb96a78	0.36214042
181	0x3ea907d6	0.3301379
182	0xbec75d89	-0.3893855
183	0xbc593393	-0.013256925
184	0xbeb82517	-0.35965797
185	0xbe13496f	-0.14383481
186	0x3ec25cb3	0.3796135
187	0x3e2cabdf	0.16862439
188	0x3d21dde8	0.039518267
189	0x3d1e0e3e	0.0385878
190	0xbe940ebe	-0.28917497
191	0x3e897433	0.26846465
192	0x3db8c99b	0.09022828
193	0xbe0df12e	-0.13861534
194	0x3e8cdb0c	0.2751087
195	0xbe99cb0a	-0.3003772
196	0xbdb0001e	-0.08593772
197	0xbb930343	-0.004486473
198	0x3e5419d6	0.2071298
199	0x3e90d784	0.28289425
200	0xbeb30101	-0.34961703
201	0xbec4236b	-0.38308272
202	0x3e10b6b3	0.14132194
203	0x3eab626e	0.33473533
204	0x3e32dedd	0.17467828
205	0xbeb89864	-0.36053765
206	0xbe3dd235	-0.18537219
207	0xbeacb8a7	-0.3373463
208	0xbe4f6a3d	-0.2025537
209	0xbe947b7f	-0.2900047
210	0xbeb536af	-0.35393283
211	0x3c07ec8d	0.008296144
212	0xbec322fb	-0.38112625
213	0x3d5897f7	0.0528793
214	0x3ddff110	0.10934651
215	0xbeba7478	-0.36416984
216	0x3d252ba0	0.040324807
217	0x3eb0392b	0.34418616
218	0x3d2ce593	0.042211127
219	0xbec13f62	-0.3774367
220	0xbe798453	-0.24366884
221	0xbdaeb824	-0.08531216
222	0xbd63d7dd	-0.055625785
223	0x3e03508a	0.12823692
224	0x3e9ec16c	0.31006944
225	0xbe0d895e	-0.13821933
226	0x3e2c3ca4	0.16820008
227	0x3e205ead	0.15661116
228	0xbe75ba83	-0.2399693
229	0xbe82467c	-0.254444
230	0x3e819637	0.25309917
231	0xbe12c60a	-0.14333358
232	0x3da3cb94	0.07997814
233	0x3e94c802	0.29058844
234	0xbc07c15d	-0.0082858475
235	0x3e186243	0.14881234
236	0x3b0a39c2	0.0021091555
237	0x3ccb1341	0.024789454
238	0xbe52479a	-0.20535126
239	0x3e82edac	0.25571954
240	0xbdc7753f	-0.0973916
241	0x3e6f2d18	0.23357046
242	0x3df2ec95	0.11861531
243	0x3d82d79f	0.06388783
244	0x3d9dd937	0.07707446
245	0x3eb0f568	0.3456223
246	0x3e88b2c7	0.26698896
247	0x3e8ffd40	0.28122902
248	0xbe5f66ed	-0.21816607
249	0xbe4a01ab	-0.19727199
250	0xbe01cff6	-0.12676987
251	0xbd724271	-0.059145395
252	0x3e8cce4f	0.2750115
253	0x3ea0835b	0.31350216
254	0xbe724d6c	-0.23662347
255	0xbc392f61	-0.0113028
